Using cuda as device

Initiating data...
old train set size: 39209, new train set size: 274457


LeNet(
  (loss_function): CrossEntropyLoss()
  (log_softMax): LogSoftmax(dim=1)
  (feature_extractor): Sequential(
    (0): Conv2d(3, 6, kernel_size=(5, 5), stride=(1, 1))
    (1): ReLU()
    (2): MaxPool2d(kernel_size=2, stride=2, padding=0, dilation=1, ceil_mode=False)
    (3): Conv2d(6, 16, kernel_size=(5, 5), stride=(1, 1))
    (4): ReLU()
    (5): MaxPool2d(kernel_size=2, stride=2, padding=0, dilation=1, ceil_mode=False)
  )
  (classifier): Sequential(
    (0): Conv2d(16, 120, kernel_size=(4, 4), stride=(1, 1))
    (1): BatchNorm2d(120, eps=1e-05, momentum=0.1, affine=True, track_running_stats=True)
    (2): ReLU()
    (3): Dropout(p=0.2, inplace=False)
    (4): Conv2d(120, 84, kernel_size=(1, 1), stride=(1, 1))
    (5): BatchNorm2d(84, eps=1e-05, momentum=0.1, affine=True, track_running_stats=True)
    (6): ReLU()
    (7): Dropout(p=0.2, inplace=False)
    (8): Conv2d(84, 43, kernel_size=(1, 1), stride=(1, 1))
  )
)
early stopping after 84 / 150
Train: Accuracy = 97.13%, Avg Loss = 0.12
Validation: Accuracy = 95.02%, Avg Loss = 0.18
Test: Accuracy = 95.95%, Avg Loss = 0.14

	Time taken: 01:11:49.60

LeNet(
  (loss_function): CrossEntropyLoss()
  (log_softMax): LogSoftmax(dim=1)
  (localization): Sequential(
    (0): Conv2d(3, 8, kernel_size=(7, 7), stride=(1, 1))
    (1): MaxPool2d(kernel_size=2, stride=2, padding=0, dilation=1, ceil_mode=False)
    (2): ReLU(inplace=True)
    (3): Conv2d(8, 10, kernel_size=(5, 5), stride=(1, 1))
    (4): MaxPool2d(kernel_size=2, stride=2, padding=0, dilation=1, ceil_mode=False)
    (5): ReLU(inplace=True)
  )
  (fc_loc): Sequential(
    (0): Linear(in_features=160, out_features=32, bias=True)
    (1): ReLU(inplace=True)
    (2): Linear(in_features=32, out_features=6, bias=True)
  )
  (feature_extractor): Sequential(
    (0): Conv2d(3, 6, kernel_size=(5, 5), stride=(1, 1))
    (1): ReLU()
    (2): MaxPool2d(kernel_size=2, stride=2, padding=0, dilation=1, ceil_mode=False)
    (3): Conv2d(6, 16, kernel_size=(5, 5), stride=(1, 1))
    (4): ReLU()
    (5): MaxPool2d(kernel_size=2, stride=2, padding=0, dilation=1, ceil_mode=False)
  )
  (classifier): Sequential(
    (0): Conv2d(16, 120, kernel_size=(4, 4), stride=(1, 1))
    (1): BatchNorm2d(120, eps=1e-05, momentum=0.1, affine=True, track_running_stats=True)
    (2): ReLU()
    (3): Dropout(p=0.2, inplace=False)
    (4): Conv2d(120, 84, kernel_size=(1, 1), stride=(1, 1))
    (5): BatchNorm2d(84, eps=1e-05, momentum=0.1, affine=True, track_running_stats=True)
    (6): ReLU()
    (7): Dropout(p=0.2, inplace=False)
    (8): Conv2d(84, 43, kernel_size=(1, 1), stride=(1, 1))
  )
)
early stopping after 91 / 150
Train: Accuracy = 98.58%, Avg Loss = 0.06
Validation: Accuracy = 97.32%, Avg Loss = 0.10
Test: Accuracy = 97.66%, Avg Loss = 0.09

	Time taken: 01:17:46.05

